…
inputs=[in_ip,in_app,in_device,in_os,in_channel,in_hour,in_day,in_wday], outputs=out)\n","model.compile(loss='binary_crossentropy',optimizer='adam',metrics=[f1_score])\n","\n","model.summary()"],"execution_count":0,"outputs":[{"output_type":"stream","text":["__________________________________________________________________________________________________\n","Layer (type)                    Output Shape         Param #     Connected to                     \n","==================================================================================================\n","ip (InputLayer)                 (None, 50)           0                                            \n","__________________________________________________________________________________________________\n","app (InputLayer)                (None, 50)           0                                            \n","__________________________________________________________________________________________________\n","device (InputLayer)             (None, 50)           0                                            \n","__________________________________________________________________________________________________\n","os (InputLayer)                 (None, 50)           0                                            \n","__________________________________________________________________________________________________\n","channel (InputLayer)            (None, 50)           0                                            \n","__________________________________________________________________________________________________\n","hour (InputLayer)               (None, 50)           0                                            \n","__________________________________________________________________________________________________\n","day (InputLayer)                (None, 50)           0                                            \n","__________________________________________________________________________________________________\n","wday (InputLayer)               (None, 50)           0                                            \n","__________________________________________________________________________________________________\n","embedding_1 (Embedding)         (None, 50, 50)       18238950    ip[0][0]                         \n","__________________________________________________________________________________________________\n","embedding_2 (Embedding)         (None, 50, 50)       38450       app[0][0]                        \n","__________________________________________________________________________________________________\n","embedding_3 (Embedding)         (None, 50, 50)       211400      device[0][0]                     \n","__________________________________________________________________________________________________\n","embedding_4 (Embedding)         (None, 50, 50)       47850       os[0][0]                         \n","__________________________________________________________________________________________________\n","embedding_5 (Embedding)         (None, 50, 50)       25050       channel[0][0]                    \n","__________________________________________________________________________________________________\n","embedding_6 (Embedding)         (None, 50, 50)       1200        hour[0][0]                       \n","__________________________________________________________________________________________________\n","embedding_7 (Embedding)         (None, 50, 50)       1550        day[0][0]                        \n","__________________________________________________________________________________________________\n","embedding_8 (Embedding)         (None, 50, 50)       350         wday[0][0]                       \n","__________________________________________________________________________________________________\n","concatenate_1 (Concatenate)     (None, 50, 400)      0           embedding_1[0][0]                \n","                                                                 embedding_2[0][0]                \n","                                                                 embedding_3[0][0]                \n","                                                                 embedding_4[0][0]                \n","                                          
…
